motions/recon_transformer_FullSeq_W10_idx0.npy (npy, 69728 bytes, 1 tensors)

array f4 [600, 29]
0	0xbf0e3760	-0.55553246
1	0xbf37aa52	-0.71744263
2	0xbc696591	-0.014245407
3	0x3e2eb5ca	0.17061535
4	0xbe4845e3	-0.1955791
5	0xbac78e86	-0.001522497
6	0x3e9fa0bc	0.31177318
7	0xbe86c329	-0.2632077
8	0x3e462a9d	0.19352193
9	0x3f9e05ba	1.2345498
10	0x3fb19660	1.3874016
11	0x3df9d988	0.12199694
12	0xbebbd429	-0.36685303
13	0xbe3d1c79	-0.18467893
14	0xbe825677	-0.25456592
15	0x3f454302	0.7705537
16	0xbf72fa10	-0.94912815
17	0xbdaaa680	-0.083325386
18	0x3d75de30	0.060026348
19	0xbd8f1ae8	-0.06987554
20	0xbc3b1ae0	-0.011419982
21	0x3f7fd9ed	0.99941903
22	0x3f4d027e	0.8008193
23	0x3edbc34a	0.4292243
24	0xbf208f96	-0.62719095
25	0x3e13b1f6	0.14423355
26	0x3df5cc9c	0.12001917
27	0x3e9ac29a	0.30226594
28	0xbe8df6c4	-0.2772733
29	0xbf0e46bf	-0.555767
30	0xbf36ca71	-0.7140265
31	0xbc68bf4e	-0.014205767
32	0x3e3077c8	0.17233193
33	0xbe48ba40	-0.19602299
34	0xbad6a2c2	-0.001637541
35	0x3ea03f3f	0.31298253
36	0xbe86b25a	-0.26307946
37	0x3e458af1	0.19291283
38	0x3f9d8c00	1.230835
39	0x3fb14c29	1.3851367
40	0x3dfdf66e	0.12400518
41	0xbeba0c3e	-0.36337465
42	0xbe3a08aa	-0.18167368
43	0xbe81f0b5	-0.25378957
44	0x3f451abe	0.7699393
45	0xbf734bfa	-0.95037806
46	0xbdaaa070	-0.08331382
47	0x3d7668b7	0.060158458
48	0xbd857504	-0.065164596
49	0xbc5c7050	-0.013454512
50	0x3f7ee91a	0.99574435
51	0x3f4d496a	0.80190146
52	0x3edbaadf	0.42903802
53	0xbf20b447	-0.6277508
54	0x3e134660	0.14382315
55	0x3df5633a	0.119818166
56	0x3e9a1c5e	0.30099767
57	0xbe8d76ff	-0.2762985
58	0xbf0df870	-0.5545721
59	0xbf35b5fe	-0.70980823
60	0xbc6ad00e	-0.014331831
61	0x3e318502	0.17335895
62	0xbe492103	-0.19641499
63	0xbae40e4e	-0.0017399283
64	0x3ea0903c	0.31360042
65	0xbe86b460	-0.2630949
66	0x3e44dfd9	0.19226016
67	0x3f9ce841	1.2258378
68	0x3fb0c86e	1.3811166
69	0x3dffc70c	0.12489137
70	0xbeb7f4ec	-0.35929048
71	0xbe373e3f	-0.17894839
72	0xbe81b030	-0.25329733
73	0x3f451ce2	0.76997197
74	0xbf73b544	-0.95198464
75	0xbdaa67d6	-0.083205864
76	0x3d7640df	0.06012046
77	0xbd72f444	-0.05931498
78	0xbc90d7c0	-0.017681003
79	0x3f7e11d0	0.9924593
80	0x3f4d32f4	0.80155873
81	0x3edae6d2	0.42754227
82	0xbf20b64e	-0.62778175
83	0x3e12c9ab	0.14334743
84	0x3df466d9	0.11933679
85	0x3e9953a1	0.29946616
86	0xbe8cf1a1	-0.27528098
87	0xbf0dbf16	-0.553697
88	0xbf346de2	-0.7048017
89	0xbc6cdfd2	-0.01445766
90	0x3e33a240	0.17542362
91	0xbe496a5e	-0.19669482
92	0xbaeeec5a	-0.0018228397
93	0x3ea0ee91	0.31432012
94	0xbe8694be	-0.26285356
95	0x3e440615	0.19142945
96	0x3f9c938d	1.2232529
97	0x3fb0492a	1.3772328
98	0x3e020818	0.126984
99	0xbeb55041	-0.3541279
100	0xbe33fd99	-0.17577209
101	0xbe8192b2	-0.25307232
102	0x3f45a0fa	0.77198756
103	0xbf7439ae	-0.9540051
104	0xbdaa63a4	-0.08319786
105	0x3d765bc7	0.06014612
106	0xbd580b54	-0.05274518
107	0xbcb6db88	-0.022321478
108	0x3f7d43b7	0.9893145
109	0x3f4d2ecc	0.8014953
110	0x3ed97091	0.42468694
111	0xbf203315	-0.62577945
112	0x3e11d2a8	0.14240515
113	0x3df26560	0.11835742
114	0x3e983cff	0.29734036
115	0xbe8c7afe	-0.27437586
116	0xbf0dd6f4	-0.5540612
117	0xbf33b77c	-0.7020185
118	0xbc712707	-0.0147187775
119	0x3e381de4	0.17980152
120	0xbe4ada42	-0.19809821
121	0xbb04a09c	-0.0020237332
122	0x3ea1f5dc	0.31632888
123	0xbe865119	-0.26233748
124	0x3e430af6	0.1904715
125	0x3f9c6c18	1.2220488
126	0x3fafd3f8	1.3736563
127	0x3e0426b9	0.12905397
128	0xbeb15947	-0.34638426
129	0xbe2fed52	-0.17180374
130	0xbe81402b	-0.2524427
131	0x3f465db8	0.77486753
132	0xbf74e146	-0.9565624
133	0xbdab2098	-0.08355826
134	0x3d7716d7	0.060324516
135	0xbd3fe1a0	-0.046846032
136	0xbcf18a28	-0.029484823
137	0x3f7c2539	0.984943
138	0x3f4ddd80	0.8041611
139	0x3ed829b2	0.4221931
140	0xbf1fd8a9	-0.6243997
141	0x3e10faf1	0.14158227
142	0x3df11cf8	0.117731035
143	0x3e965d3b	0.29368004
144	0xbe8c003e	-0.27343935
145	0xbf07baac	-0.53019214
146	0xbf2d17ef	-0.67614645
147	0xbc7684b6	-0.015046289
148	0x3e431170	0.1904962
149	0xbe4fbf06	-0.20287713
150	0xbb6b0112	-0.0035858792
151	0x3ea28bda	0.31747323
152	0xbe924df6	-0.28575104
153	0x3e45a806	0.19302377
154	0x3f9e04a9	1.2345172
155	0x3fafd044	1.3735433
156	0x3ddc9c4a	0.10771997
157	0xbe9bf34d	-0.3045906
158	0xbe2c7cd0	-0.16844487
159	0xbe85ac6c	-0.2610811
160	0x3f4f6716	0.8101667
161	0xbf7023da	-0.93804705
162	0xbda9922f	-0.082798354
163	0x3d76aae7	0.06022158
164	0xbca19a84	-0.019727
165	0xbd806d7d	-0.06270883
166	0x3f79e65e	0.9761714
167	0x3f44c075	0.76856166
168	0x3eec5612	0.46159416
169	0xbf247ed6	-0.64256036
170	0x3e0d875a	0.13821164
171	0x3dff0f1f	0.12454056
172	0x3e8cddae	0.27512878
173	0xbe8a1db2	-0.2697578
174	0xbf085a46	-0.53262746
175	0xbf2b94f6	-0.6702417
176	0xbc7902ae	-0.015198393
177	0x3e469e35	0.19396289
178	0xbe50840b	-0.2036287
179	0xbb7635e4	-0.0037568742
180	0x3ea3b872	0.31976658
181	0xbe9340ce	-0.2876038
182	0x3e44dc24	0.19224602
183	0x3f9e427e	1.2364042
184	0x3faea83c	1.3645091
185	0x3de5aa7c	0.11214158
186	0xbe9a786e	-0.30170006
187	0xbe28eb26	-0.16495952
188	0xbe855f0e	-0.26049083
189	0x3f4ef23a	0.8083836
190	0xbf705c01	-0.93890387
191	0xbdaa121c	-0.08304235
192	0x3d76a279	0.06021354
193	0xbc3e3258	-0.011608683
194	0xbd8d6019	-0.06903095
195	0x3f792971	0.9732886
196	0x3f44507c	0.7668531
197	0x3eebe1ea	0.46070796
198	0xbf252660	-0.6451168
199	0x3e0de81a	0.13858071
200	0x3dfecad6	0.12441032
201	0x3e8bef53	0.27331027
202	0xbe894aa0	-0.26814747
203	0xbf08e46c	-0.53473544
204	0xbf2a1dd4	-0.66451764
205	0xbc7e7987	-0.015531904
206	0x3e48de38	0.1961602
207	0xbe5198a6	-0.20468387
208	0xbb7dd3f3	-0.0038731068
209	0x3ea44ebd	0.32091323
210	0xbe946a00	-0.28987122
211	0x3e44579c	0.19174045
212	0x3f9e8357	1.2383832
213	0x3fadc17a	1.3574669
214	0x3deae12a	0.11468728
215	0xbe97ac8c	-0.2962383
216	0xbe25a4ff	-0.16176222
217	0xbe857814	-0.26068175
218	0x3f4e63b0	0.8062086
219	0xbf707bbf	-0.9393882
220	0xbdaa2f01	-0.083097465
221	0x3d762cf6	0.06010147
222	0xbb7668c0	-0.0037599057
223	0xbd9ee95e	-0.07759355
224	0x3f77acbc	0.96747947
225	0x3f43b64b	0.7645003
226	0x3eec3ea1	0.46141532
227	0xbf25be54	-0.6474354
228	0x3e0eabc7	0.13932715
229	0x3e002172	0.12512758
230	0x3e8aaaf8	0.27083564
231	0xbe882ff2	-0.2659908
232	0xbf095b9f	-0.5365543
233	0xbf286bea	-0.65789664
234	0xbc8101ed	-0.015747989
235	0x3e4b7292	0.19867924
236	0xbe520568	-0.20509875
237	0xbb83543c	-0.0040078443
238	0x3ea4b391	0.32168248
239	0xbe956a38	-0.291826
240	0x3e43ce85	0.1912175
241	0x3f9ecaac	1.24056
242	0x3facca50	1.3499241
243	0x3deccef7	0.11562913
244	0xbe967144	-0.2938329
245	0xbe241969	-0.16025318
246	0xbe854020	-0.26025486
247	0x3f4e096a	0.80483115
248	0xbf709105	-0.9397128
249	0xbda9e98b	-0.08296498
250	0x3d7643e0	0.060123324
251	0x3b7c8e60	0.003853701
252	0xbdaa90c0	-0.0832839
253	0x3f75fce7	0.96089023
254	0x3f43718d	0.7634514
255	0x3eecddae	0.46262878
