motions/recon_resnet_no_down_FullSeq_W10_idx0.npy (npy, 69728 bytes, 1 tensors)

array f4 [600, 29]
-0.6116111 -0.23412825 -0.010607868 0.31692278 -0.25397474 -0.067154124 0.27163637 -0.49962693
0.14834544 1.0888405 0.9116584 -0.2676803 -0.28661472 -0.42452767 -0.13170062 1.6539922
-1.5870788 -0.08225584 0.051467936 0.03369057 -0.28557652 1.6489801 1.653113 0.001752913
-0.5681033 0.35201332 0.3230424 0.53820944 -0.17184672 -0.28493887 -0.40635967 0.02399991
0.25169653 -0.19698352 -0.061106913 0.30666566 -0.6070336 0.12226797 0.91746354 0.46442991
-0.7365931 -0.43696895 -0.34490296 -0.105620444 1.8336822 -1.3102922 -0.08538218 -0.04205658
-0.26954484 -0.52261114 1.2688613 1.3652977 0.36890283 -0.2956699 0.3134672 0.24460955
0.40785572 -0.12073822 0.030270815 -0.34415665 0.0023454307 0.20744473 -0.22086206 -0.059136756
0.32009315 -0.5592936 0.07771851 0.8786866 0.2299332 -0.9654259 -0.3070091 -0.16361322
-0.042963505 1.5768989 -1.2360181 -0.0812874 -0.019567166 -0.51121396 -0.5294014 0.84492075
1.2053214 0.63906896 -0.41986704 0.3064496 0.121735185 0.23740026 -0.123219535 0.022463918
-0.283768 -0.012755675 0.1404508 -0.18039706 -0.085562594 0.23740053 -0.59886986 0.032581776
0.7724633 0.34143734 -1.1211174 -0.5815725 -0.19782159 -0.020164356 1.4197007 -1.1667589
-0.07616961 -0.030919958 -0.26264182 -0.56875396 1.0695372 1.3314292 0.58638436 -0.52102727
0.3255959 0.17450576 0.2521344 -0.07625743 0.015568078 -0.14709035 -0.016160164 0.14688125
-0.21250786 -0.070407964 0.23020415 -0.55637354 -0.040275663 0.80763525 0.20544636 -0.9294664
-0.69531053 -0.17721008 -0.082731694 1.4073627 -1.2560084 -0.08579798 0.022732308 -0.30569345
-0.52169836 0.97391975 1.1255102 0.5623424 -0.50352854 0.35924202 0.16458645 0.23615208
-0.09076684 -0.26629895 -0.2759802 -0.014906562 0.2207743 -0.29944244 -0.071921185 0.24142879
-0.49525845 0.035281397 0.8735673 0.49406186 -0.49989796 -0.56442976 -0.35666895 -0.12392601
1.4878244 -1.3832638 -0.07503156 0.050207406 -0.08203955 -0.48020828 1.2999943 1.2634473
0.43190625 -0.635708 0.38584983 0.30112717 0.42429906 -0.17523697 -0.19402473 -0.3707029
0.010754087 0.19326755 -0.29450718 -0.056067526 0.25027803 -0.5261079 0.03433061 0.85234815
0.2023914 -0.69881874 -0.6526749 -0.3391461 -0.15755081 1.5666804 -1.2886791 -0.062515415
0.0086670015 -0.16241275 -0.51197565 1.0847301 1.0165886 0.570781 -0.56112623 0.3639229
0.2852295 0.32248446 -0.18264589 -0.07627196 -0.2684596 0.009955795 0.1492449 -0.2899524
-0.051906478 0.29150444 -0.45156142 0.038160503 0.7362313 0.10100189 -0.73271877 -0.55475116
-0.26053625 -0.17694446 1.3966367 -1.2700942 -0.065106206 0.017259588 -0.21764858 -0.48452902
0.8818414 0.99875104 0.76054615 -0.65275455 0.37128544 0.2704155 0.24125087 -0.2603516
-0.0685008 -0.26855227 0.00862412 0.17608373 -0.22618596 -0.06358443 0.26616985 -0.41632485
0.07086598 0.43362266 0.17274544 -0.5214413 -0.53307647 -0.2584251 -0.12808383 1.4283018
-1.2396342 -0.067336634 0.003016334 0.08432068 -0.3478093 1.0714974 1.1448293 0.734901
00000000: 8c92 1cbf 51bf 6fbe a0cc 2dbc b443 a23e
00000010: fa08 82be 1a88 89bd ec13 8b3e 1acf ffbe
00000020: dee7 173e 205f 8b3f 7262 693f 640d 89be
00000030: 2abf 92be b15b d9be 87dc 06be 04b6 d33f
00000040: 6625 cbbf c075 a8bd 0bd0 523d 20ff 093d
00000050: 1637 92be c811 d33f 3599 d33f 00c2 e53a
00000060: 386f 11bf 173b b43e d065 a53e 18c8 093f
00000070: 96f8 2fbe 82e3 91be 600e d0be 769b c43c
00000080: 5ede 803e 0cb6 49be 3e4b 7abd 4803 9d3e
00000090: 8e66 1bbf a167 fa3d e4de 6a3f c2c9 ed3e
000000a0: 5e91 3cbf 65ba dfbe 1f97 b0be 884f d8bd
000000b0: 19b6 ea3f a8b7 a7bf dadc aebd 8543 2cbd
000000c0: c801 8abe d8c9 05bf 0c6a a23f 13c2 ae3f
000000d0: d5e0 bc3e 0c62 97be c67e a03e ed7a 7a3e
000000e0: 77d2 d03e 9a45 f7bd 80fa f73c 4d35 b0be
000000f0: ccb5 193b 646c 543e aa29 62be 6239 72bd
00000100: 40e3 a33e de2d 0fbf e22a 9f3d 9bf1 603f
00000110: 9c73 6b3e 2726 77bf 4c30 9dbe 398a 27be
00000120: 80fa 2fbd d3d7 c93f d735 9ebf 027a a6bd
00000130: 524b a0bc ebde 02bf da86 07bf ba4c 583f
00000140: f947 9a3f 069a 233f d0f8 d6be f6e6 9c3e
00000150: 4c50 f93d 0e19 733e 865a fcbd 4006 b83c
00000160: 0a4a 91be 2efd 50bc 56d2 0f3e 02ba 38be
00000170: 713b afbd 2019 733e 894f 19bf 7874 053d
00000180: 28c0 453f e0d0 ae3e c680 8fbf efe1 14bf
00000190: be91 4abe b82f a5bc c1b8 b53f 5b58 95bf
000001a0: d0fe 9bbd da4b fdbc fd78 86be dc99 11bf
000001b0: 98e6 883f 466c aa3f 491d 163f 0b62 05bf
000001c0: 81b4 a63e a3b1 323e c317 813e db2c 9cbd
000001d0: 4011 7f3c da9e 16be 5262 84bc 0a68 163e
000001e0: a99b 59be 0d32 90bd a3ba 6b3e 7f6e 0ebf
000001f0: 18f8 24bd 2fc1 4e3f 8860 523e 83f1 6dbf
00000200: dfff 31bf 8f76 35be 3c6f a9bd 7624 b43f
00000210: e2c4 a0bf dab6 afbd 1b39 ba3c da83 9cbe
00000220: 068e 05bf ce52 793f b810 903f acf5 0f3f
00000230: 3fe7 00bf 92ee b73e 5a89 283e dad1 713e
00000240: f7e3 b9bd 5658 88be 474d 8dbe a73a 74bc
00000250: a812 623e 8550 99be 6a4b 93bd 1c39 773e
00000260: 8492 fdbe 3a83 103d 1ba2 5f3f adf5 fc3e
00000270: a0f2 ffbe 787e 10bf 509d b6be eccc fdbd
00000280: 0871 be3f ca0e b1bf 26aa 99bd 48a6 4d3d
00000290: 5a04 a8bd dcdd f5be 3766 a63f a4b8 a13f
000002a0: d122 dd3e c2bd 22bf 1c8e c53e 572d 9a3e
000002b0: ba3d d93e 5271 33be 6bae 46be c5cc bdbe
000002c0: e931 303c eee7 453e a5c9 96be 10a7 65bd
000002d0: 7124 803e 02af 06bf 419e 0c3d 7d33 5a3f
000002e0: b13f 4f3e c9e5 32bf b415 27bf 8fa4 adbe
000002f0: 0055 21be fc88 c83f 70f3 a4bf 1508 80bd
00000300: 0a00 0e3c 874f 26be d610 03bf 70d8 8a3f
00000310: 931f 823f b41e 123f f8a5 0fbf 1a54 ba3e
00000320: 9a09 923e af1c a53e 8607 3bbe 7934 9cbd
00000330: 8973 89be a11d 233c a8d3 183e a474 94be
00000340: e39b 54bd 1240 953e 0f33 e7be 304e 1c3d
00000350: a879 3c3f 14da ce3d 7593 3bbf 2c04 0ebf
00000360: 0265 85be ee30 35be fec4 b23f 7292 a2bf
00000370: 6756 85bd fb63 8d3c 45df 5ebe 3014 f8be
00000380: 5cc0 613f 26ae 7f3f 27b3 423f ec1a 27bf
00000390: 2019 be3e e773 8a3e 780a 773e ce4c 85be
000003a0: 264a 8cbd af7f 89be 2e4c 0d3c 4b4f 343e
000003b0: 4b9d 67be 8e38 82bd 6a47 883e 8828 d5be
000003c0: 2f22 913d ca03 de3e 2ee4 303e 2d7d 05bf
000003d0: b377 08bf 4b50 84be 6828 03be 98d2 b63f
000003e0: 55ac 9ebf cae7 89bd b0ad 453b 52b0 ac3d
000003f0: 1014 b2be d426 893f c489 923f 7922 3c3f
