checkpoints/best_simple_ema.pth (torch, 724682 bytes, 11 tensors)

encoder.model.0.weight f4 [64, 29, 4]
0.035629943 -0.06221659 -0.048131913 0.04311863 -0.07575144 -0.067051135 0.0012576793 0.035119437
0.14625327 0.07221106 0.069119774 0.021524565 -0.020175733 0.033585235 0.01768694 -0.09353396
-0.11016133 -0.077380225 -0.092258215 -0.1269378 0.07836553 0.06945112 0.10076849 -0.03216522
-0.013660356 0.057556976 0.08993587 0.026032874 -0.090328515 -0.10006635 -0.040238462 -0.055512134
-0.04189803 -0.04260833 0.009906818 0.04981391 -0.07223711 0.013624787 -0.023613025 0.028774658
0.13221847 0.13005538 0.09273096 0.01350386 -0.11033656 -0.17883027 -0.15490866 -0.12253026
-0.07857922 0.06505441 -0.04294425 0.041849412 -0.09719309 0.039504834 -0.11783943 0.05975243
-0.10106422 -0.03420827 -0.013193741 -0.011232663 0.070837446 -0.04981042 0.017868709 0.07530489
-0.045604873 0.06926952 -0.038492035 0.028391877 0.023016213 -0.014029426 0.093149744 0.09047403
-0.06673298 0.055549975 0.015468697 0.03475053 0.056953233 -0.034377858 -0.030157514 -0.0044103493
-0.14617981 -0.033345517 -0.108994104 -0.14555366 0.026238184 -0.03795008 -0.0884178 -0.026671352
0.08190518 -0.009764227 0.031339914 0.027263578 0.008688175 0.031486705 0.12789045 0.068338394
-0.05666316 0.0508415 -0.047404412 -0.022044633 0.10272527 0.09226212 -0.047553908 0.10659198
-0.11640828 -0.033759493 0.035796426 -0.12606438 0.007673211 0.015542701 0.08243865 -0.050177567
-0.07758994 -0.089875154 -0.13900957 -0.042789593 0.16578162 0.10795373 0.048242312 0.027806332
0.0042231693 -0.06309497 -0.059159305 -0.11885722 -0.0742013 -0.016879776 -0.11642253 0.020453643
0.07699869 -0.006053541 0.084532805 -0.07272847 -0.036425687 0.06263093 -0.026876692 0.034496363
0.033961613 -0.049932417 0.0543212 -0.0046973955 0.001656768 -0.077098444 0.008040994 0.02648433
0.0054637925 0.05793926 0.10948892 -0.010448114 -0.045795385 0.010535534 -0.09329946 -0.100895636
0.008703748 0.0025303385 -0.022402093 -0.07730205 0.015956152 -0.019330738 0.059971493 -0.094279505
-0.104366206 -0.12406954 -0.13329123 -0.021172194 -0.008339158 -0.08890654 -0.06171326 -0.07300556
0.10202773 0.10025912 0.07080082 0.0063856957 0.12388517 0.10868585 -0.0015264727 0.03875777
-0.015334497 -0.054040924 -0.0036518467 -0.038086995 0.08094699 0.04551443 -0.08304387 0.08137497
0.01779565 -0.086673684 -0.085517064 -0.018418986 0.04616426 0.07929006 0.028988846 -0.01299462
0.12540703 0.11245621 0.013897681 0.1253854 -0.1503631 -0.041122034 -0.16309394 -0.067921475
0.08435075 0.29454178 0.13360827 0.1982301 -0.0118690645 0.07457476 0.04322428 0.028352344
-0.08441917 0.06392343 0.06867143 0.040196788 0.11219188 -0.053538978 0.118510805 0.0966701
-0.019244997 0.06601762 0.08057311 0.07550511 0.058253657 0.10606792 0.15481193 0.08356799
-0.0073280297 0.065578096 -0.037220888 -0.014815064 0.0197926 -0.0593252 0.015051854 -0.04027289
0.1272491 0.031095145 0.06240275 0.022705967 0.12622146 0.08586957 0.06930642 0.13376981
0.069547646 0.043759342 -0.045940477 0.07650253 -0.093971096 0.007155104 0.04769176 0.036725923
-0.063855946 -0.042059332 -0.04925422 -0.05829758 -0.08169878 -0.0047461772 -0.006076096 0.049407706
00000000: b4f0 113d d3d6 7ebd f825 45bd 299d 303d
00000010: 9223 9bbd 1b52 89bd b7d8 a43a 66d9 0f3d
00000020: 6bc3 153e 64e3 933d ab8e 8d3d 4954 b03c
00000030: 9447 a5bc ac90 093d 34e4 903c bc8e bfbd
00000040: 439c e1bd 8679 9ebd e0f1 bcbd fcfb 01be
00000050: 1b7e a03d 643c 8e3d b65f ce3d adbf 03bd
00000060: b0cf 5fbc ddc0 6b3d 4c30 b83d e542 d53c
00000070: 28fe b8bd 96ef ccbd 16d1 24bd b160 63bd
00000080: 459d 2bbd 1286 2ebd 3550 223c ac09 4c3d
00000090: 0df1 93bd 803a 5f3c 1a70 c1bc d5b8 eb3c
000000a0: 4764 073e 3d2d 053e bbe9 bd3d 4b3f 5d3c
000000b0: 22f8 e1bd 481f 37be 60a0 1ebe 25f1 fabd
000000c0: 24ee a0bd 3f3b 853d 4fe6 2fbd 4a6a 2b3d
000000d0: 2c0d c7bd d2cf 213d cd55 f1bd f7be 743d
000000e0: c2fa cebd f91d 0cbd 902a 58bc 3409 38bc
000000f0: 3913 913d 0306 4cbd 6661 923c 7339 9a3d
00000100: 2dcc 3abd 2edd 8d3d d3a9 1dbd 1596 e83c
00000110: 7f8c bc3c addb 65bc 4bc5 be3d 734a b93d
00000120: 4dab 88bd 5f88 633d 6b70 7d3c 9256 0e3d
00000130: cb47 693d cccf 0cbd e40c f7bc b184 90bb
00000140: 29b0 15be 4f95 08bd 4d38 dfbd 050c 15be
00000150: 76f1 d63c 8b71 1bbd 6414 b5bd e17d dabc
00000160: e7bd a73d 23fa 1fbc 485e 003d de57 df3c
00000170: d958 0e3c 34f8 003d b7f5 023e 00f5 8b3d
00000180: a117 68bd 2d3f 503d 212b 42bd f296 b4bc
00000190: a061 d23d ecf3 bc3d e3c7 42bd e54c da3d
000001a0: 7767 eebd 6547 0abd 469f 123d 0517 01be
000001b0: 8f6f fb3b d0a6 7e3c 98d5 a83d fe86 4dbd
000001c0: 79e7 9ebd 7710 b8bd 8658 0ebe 2444 2fbd
000001d0: a8c2 293e d816 dd3d bb99 453d 1bca e33c
000001e0: 8362 8a3b f037 81bd 0751 72bd 6a6b f3bd
000001f0: daf6 97bd 7547 8abc ef6e eebd 668e a73c
00000200: 7db1 9d3d c85c c6bb 891f ad3d aaf2 94bd
00000210: 1a33 15bd a544 803d 822c dcbc 0f4c 0d3d
00000220: 551b 0b3d ef85 4cbd e87f 5e3d 9cec 99bb
00000230: e927 d93a cae5 9dbd 60be 033c aaf5 d83c
00000240: 9d09 b33b b851 6d3d ba3b e03d 912e 2bbc
00000250: f193 3bbd 3b9d 2c3c ca13 bfbd 5fa2 cebd
00000260: 2a9a 0e3c 09d4 253b 9884 b7bc 8a50 9ebd
00000270: 7ab6 823c 7f5b 9ebc aba4 753d 9d15 c1bd
00000280: f3bd d5bd 2c18 febd 7f7d 08be 4f71 adbc
00000290: f7a0 08bc a214 b6bd 0bc7 7cbd f083 95bd
000002a0: eaf3 d03d a754 cd3d 0500 913d 193f d13b
000002b0: 82b7 fd3d b096 de3d ed13 c8ba 78c0 1e3d
000002c0: 8b3d 7bbc 045a 5dbd d253 6fbb 1c01 1cbd
000002d0: 89c7 a53d 576d 3a3d e812 aabd eca7 a63d
000002e0: 2fc8 913c f981 b1bd 9223 afbd 6ae3 96bc
000002f0: bc16 3d3d d462 a23d 047a ed3c 63e7 54bc
00000300: b36a 003e 714f e63d 19b3 633c 0865 003e
00000310: c9f8 19be 946f 28bd 1902 27be 6a1a 8bbd
00000320: 16c0 ac3d 2ece 963e 9bd0 083e d5fc 4a3e
00000330: 7776 42bc a7ba 983d f10b 313d 2d43 e83c
00000340: f5e3 acbd 4aea 823d 9ba3 8c3d 63a5 243d
00000350: dbc4 e53d b04b 5bbd cbb5 f23d f9fa c53d
00000360: afa7 9dbc 3f34 873d 8403 a53d 6ca2 9a3d
00000370: 639b 6e3d 233a d93d 0587 1e3e b225 ab3d
00000380: f81f f0bb cf4d 863d ee74 18bd e2ba 72bc
00000390: 1724 a23c fbfe 72bd 0d9c 763c 30f5 24bd
000003a0: 974d 023e 3fbb fe3c 079a 7f3d dd01 ba3c
000003b0: 3340 013e 63dc af3d 86f0 8d3d f4fa 083e
000003c0: ff6e 8e3d ff3c 333d 152c 3cbd 5cad 9c3d
000003d0: eb73 c0bd 5d75 ea3b 6f58 433d ec6d 163d
000003e0: e8c6 82bd 6846 2cbd cbbe 49bd 71c9 6ebd
000003f0: b151 a7bd d285 9bbb fd19 c7bb bc5f 4a3d

encoder.model.0.bias f4 [64]
-0.075434476 0.029467082 -0.009310812 -0.18054691 0.054319747 -0.04860018 0.051106695 0.25014153
0.26915973 0.078631386 0.009792177 0.12279212 -0.13234104 -0.14386073 -0.12002585 0.16011728
-0.1707967 0.21973465 0.03963792 0.182386 0.1056407 0.21110097 0.016372472 0.0025020714
0.0898479 0.17641763 0.05898043 -0.05611305 0.055275004 -0.0029317078 -0.07095291 0.10087301
0.1581788 0.15667577 0.07239757 0.115125895 -0.007080123 -0.0030791578 0.16879296 0.16476572
-0.0022338412 -0.102860585 -0.017503683 0.11783692 -0.060798053 -0.07701533 -0.14480628 -0.0640955
-0.036886357 0.1304782 0.016017666 -0.07813445 0.04975256 0.18391673 -0.007489571 -0.03852624
0.19460286 -0.2587756 -0.021266092 0.018705586 -0.19703133 0.030907467 0.0290527 -0.13665688
00000000: 647d 9abd f364 f13c 608c 18bc 4ae1 38be
00000010: 627e 5e3d fb10 47bd 4155 513d 8d12 803e
00000020: 4ecf 893e 7e09 a13d 5e6f 203c 6f7a fb3d
00000030: 6984 07be 3a50 13be 1dd0 f5bd c9f5 233e
00000040: 55e5 2ebe 1f02 613e 5f5b 223d 65c3 3a3e
00000050: 275a d83d da2a 583e 901f 863c cbf9 233b
00000060: 2d02 b83d d3a6 343e 7795 713d ccd6 65bd
00000070: 0b68 623d e521 40bb c24f 91bd 8296 ce3d
00000080: a0f9 213e 9d6f 203e 2d45 943d 20c7 eb3d
00000090: 6000 e8bb b2cb 49bb 10d8 2c3e 58b8 283e
000000a0: a365 12bb 92a8 d2bd e263 8fbc 7c54 f13d
000000b0: 6107 79bd 37ba 9dbd 1948 14be 8044 83bd
000000c0: 2616 17bd 149c 053e 7b37 833c f404 a0bd
000000d0: 57c9 4b3d ab54 3c3e 136b f5bb b1cd 1dbd
000000e0: f945 473e 3c7e 84be 3a36 aebc 753c 993c
000000f0: 95c2 49be a831 fd3c eeff ed3c c8ef 0bbe

encoder.model.2.weight f4 [64, 64, 4]
0.029801177 0.06956285 0.09062903 0.016208217 0.0328 -0.016852139 0.05101296 -0.023916978
0.018623985 0.028567 -0.006853779 0.072457574 -0.040406853 0.100494705 0.051454775 0.05326029
-0.00160346 0.0051759505 0.07124092 -0.06584707 0.04708301 0.011915182 0.059943996 0.00016207805
0.024124764 0.0036972463 7.45775e-05 -0.04509158 0.035106335 -0.031572636 0.039563615 -0.054700725
0.020770326 -0.030396914 -0.027123589 -0.052036103 -0.07212991 -0.05370442 -0.05539162 -0.043279476
0.02958018 0.03828067 0.08528224 0.021230742 0.042413305 0.08247381 0.03865144 0.029916916
0.048162412 -0.017059823 -0.009485306 0.0044271178 -0.026582932 0.008469681 -0.04851792 -0.021643508
-0.01023336 0.08921823 -0.005292487 -0.0099725425 -0.052766476 -0.10495267 -0.018302178 0.01793355
-0.02927299 -0.012267935 0.0043155258 -0.012401526 -0.017781602 0.046291053 -0.00016448733 0.015356793
-0.04357568 -0.024009584 -0.06419166 -0.084800094 0.06968315 0.03175019 0.0037768963 0.0018940808
-0.043398615 -0.123344615 -0.046243772 -0.06808662 0.04264858 -0.067303896 -0.075498596 0.081583664
-0.12038555 -0.026191128 -0.027718006 0.040545404 -0.028480614 -0.07102947 -0.018858267 -0.012887972
0.079835646 -0.08214976 -0.0688073 0.010408214 0.0033630265 0.008007439 0.027810125 0.00633265
-0.0041363663 -0.011894374 0.05355322 -0.018448988 -0.03733676 0.034822643 -0.00039756935 -0.057957623
-0.029460795 -0.10721119 -0.09768053 -0.058830976 -0.009667803 0.107199736 0.035701793 0.031482067
-0.014376665 0.016582062 0.06501145 -0.050365474 0.008434356 0.08953839 0.07927255 0.046204526
-0.00479632 -0.059259944 -0.06691807 -0.023291355 -0.023053348 -0.13489842 -0.024729524 0.0008322967
0.021051303 -0.013401179 -0.017246565 0.039953545 -0.018902456 -0.04380531 -0.033820875 0.0075456696
0.030584306 -0.017503478 -0.017415186 -0.05372049 0.018117024 -0.039400924 -0.05390717 0.014814872
0.011199523 0.0015346702 0.040052272 -0.007356104 -0.082583964 -0.04092146 -0.0031384074 0.010140598
0.020744735 0.018270764 0.055477258 -0.054679055 -0.033612885 0.074533336 0.058794655 -0.060731646
-0.004881588 0.05328871 -0.016732257 0.04769145 0.045357443 0.062041588 0.11991149 0.06437144
-0.06978457 0.07759897 0.07412127 -0.06834155 -0.018832142 -0.00037926345 0.01868982 -0.043604158
0.03636526 -0.056089196 0.02676017 0.048686866 0.010712093 0.013291702 0.016993267 0.02802261
-0.009036755 -0.003178506 -0.035527173 -0.03590917 0.017828975 0.06654463 0.05327199 -0.013698183
0.08049709 0.08628763 0.11718137 0.07101341 -0.0038611821 0.008429384 0.061398834 0.044450756
0.049306348 0.07117403 0.050460067 0.027401147 -0.02503754 -0.038856402 -0.031777408 0.034429748
-0.05977625 -0.1246074 -0.1359885 -0.0002766797 0.05787066 -0.017662985 0.041571137 -0.021580784
0.055078972 -0.040810935 -0.013419393 0.0084081665 0.07052609 0.00031723434 -0.05302325 -0.056231562
-0.049654868 -0.06383862 -0.05948215 -0.082535535 0.022976158 -0.054444004 -0.036935452 0.0455659
0.0354869 0.0027733129 0.018845394 -0.04962724 -0.015996028 -0.0039891177 -0.02899451 0.062019065
0.024495717 -0.007812963 -0.047288723 0.01790961 -0.051115166 -0.0146081485 0.039312582 0.03897386
00000000: 9921 f43c f876 8e3d b69b b93d 18c7 843c
00000010: 4b59 063d 7f0d 8abc f7f2 503d 8aed c3bc
00000020: 5491 983c 5705 ea3c aa95 e0bb a364 943d
00000030: a881 25bd 2bd0 cd3d 3ec2 523d 7627 5a3d
00000040: 312b d2ba 059b a93b c2e6 913d d4da 86bd
00000050: 1dda 403d e537 433c d687 753d 7ff3 2939
00000060: 4ca1 c53c 804d 723b 7e66 9c38 f3b1 38bd
00000070: a9cb 0f3d 4f52 01bd 750d 223d de0d 60bd
00000080: 8826 aa3c f302 f9bc 4a32 debc cf23 55bd
00000090: d9b8 93bd 2af9 5bbd 53e2 62bd d245 31bd
000000a0: 2252 f23c 31cc 1c3d 74a8 ae3d 18ec ad3c
000000b0: 93b9 2d3d 07e8 a83d f950 1e3d 5214 f53c
000000c0: f345 453d 0bc1 8bbc 4268 1bbc 5b11 913b
000000d0: 73c4 d9bc 6bc4 0a3c baba 46bd ba4d b1bc
000000e0: d3a9 27bc 0cb8 b63d 996c adbb e063 23bc
000000f0: a921 58bd 6df1 d6bd 73ee 95bc 61e9 923c
00000100: e9cd efbc 73ff 48bc 4169 8d3b c52f 4bbc
00000110: b9aa 91bc b09b 3d3d 3b7a 2cb9 0f9b 7b3c
00000120: 6a7c 32bd bfaf c4bc eb76 83bd acab adbd
00000130: 0ab6 8e3d 7d0c 023d ce85 773b ce42 f83a
00000140: bfc2 31bd 1a9c fcbd 1c6a 3dbd ff70 8bbd
00000150: 47b0 2e3d a0d6 89bd 029f 9abd 5615 a73d
00000160: b38c f6bd c78e d6bc df10 e3bc f012 263d
00000170: 2d50 e9bc e677 91bd a77c 9abc 1328 53bc
00000180: df80 a33d 223e a8bd d7ea 8cbd 3787 2a3c
00000190: 3966 5c3b a231 033c 0fd2 e33c 1e82 cf3b
000001a0: 5b8a 87bb 9fe0 42bc 9f5a 5b3d 5522 97bc
000001b0: 6eee 18bd 30a2 0e3d db70 d0b9 f964 6dbd
000001c0: c457 f1bc 8a91 dbbd bb0c c8bd c0f8 70bd
000001d0: b465 1ebc 898b db3d 0b3c 123d 57f3 003d
000001e0: 1b8c 6bbc 1bd7 873c b924 853d 074c 4ebd
000001f0: 4130 0a3c e75f b73d a659 a23d f540 3d3d
00000200: 732a 9dbb 8eba 72bd 570c 89bd 83cd bebc
00000210: 60da bcbc d022 0abe 9295 cabc 7c2e 5a3a
00000220: c873 ac3c 9e90 5bbc ab48 8dbc 54a6 233d
00000230: 53d9 9abc 326d 33bd c287 0abd aa41 f73b
00000240: f08b fa3c 7463 8fbc 4baa 8ebc 040a 5cbd
00000250: 276a 943c dd62 21bd c4cd 5cbd 14ba 723c
00000260: 347e 373c fd26 c93a da0d 243d 790b f1bb
00000270: c821 a9bd 439d 27bd bdad 4dbb c024 263c
00000280: ddf0 a93c 92ac 953c 1f3c 633d 25f7 5fbd
00000290: aaad 09bd efa4 983d aad2 703d bfc1 78bd
000002a0: baf5 9fbb 4345 5a3d 1612 89bc 1c58 433d
000002b0: bac8 393d 521f 7e3d 2894 f53d 2cd5 833d
000002c0: 36eb 8ebd 35ec 9e3d e4cc 973d a8f6 8bbd
000002d0: dd45 9abc e1d7 c6b9 651b 993c 469a 32bd
000002e0: bdf3 143d c9bd 65bd 2538 db3c e16b 473d
000002f0: c681 2f3c 70c5 593c 7735 8b3c ac8f e53c
00000300: e60e 14bc 7b4e 50bb f184 11bd 7e15 13bd
00000310: 120e 923c 8d48 883d bb33 5a3d 586e 60bc
00000320: a9db a43d 92b7 b03d c9fc ef3d 7b6f 913d
00000330: e30b 7dbb 661b 0a3c 587d 7b3d ff11 363d
00000340: 74f5 493d b1c3 913d 37af 4e3d 5f78 e03c
00000350: 871b cdbc e427 1fbd 0729 02bd 3506 0d3d
00000360: f1d7 74bd 2a32 ffbd 9240 0bbe 520f 91b9
00000370: c909 6d3d f7b1 90bc 7f46 2a3d 2fca b0bc
00000380: 7d9a 613d 5e29 27bd 04dd 5bbc 68c2 093c
00000390: fc6f 903d 7952 a639 e82e 59bd 1153 66bd
000003a0: e762 4bbd d3bd 82bd 8ea3 73bd 6408 a9bd
000003b0: 7f38 bc3c ad00 5fbd a149 17bd 4fa3 3a3d
000003c0: b65a 113d 78c0 353b a861 9a3c ef45 4bbd
000003d0: 1a0a 83bc 25b7 82bb e585 edbc b407 7e3d
000003e0: 3eab c83c f101 00bc d2b1 41bd 2db7 923c
000003f0: 235e 51bd 0457 6fbc 3b06 213d 0ea3 1f3d

encoder.model.2.bias f4 [64]
0.02545319 -0.08186602 0.01780838 -0.041649137 -0.006329841 0.024689088 -0.05676404 0.051983587
-0.07189142 0.045891017 -0.044924922 -0.01236093 -0.046335336 -0.013186338 0.016594402 0.020831008
-0.07141214 -0.02399904 -0.05656173 0.025141329 0.05823333 -0.037364364 -0.116494566 -0.07451779
0.004001382 -0.03368153 0.0064226184 -0.022345692 -0.0012111792 -0.0057996926 -0.039833244 0.055812392
-0.059207395 -0.013493024 0.05264578 0.16821806 0.007999712 0.07325092 0.00409451 0.054718204
0.06610003 -0.03537579 0.060800795 -0.036664516 -0.044288225 -0.00638171 0.0424726 -0.06317628
-0.021794578 -0.020601258 0.003971509 -0.045293313 -0.006810379 0.083182536 -0.047599018 0.042001437
0.00052323093 -0.06695182 0.066941366 -0.023328226 -0.080738984 0.060613398 0.031033035 0.027410407
00000000: 3583 d03c 5fa9 a7bd e1e2 913c 4998 2abd
00000010: 8e6a cfbb c540 ca3c 6981 68bd beec 543d
00000020: cf3b 93bd 38f8 3b3d 3203 38bd 8085 4abc
00000030: 1fca 3dbd 830b 58bc fcf0 873c caa5 aa3c
00000040: 8740 92bd a299 c4bc 46ad 67bd 30f5 cd3c
00000050: 1286 6e3d 600b 19bd b494 eebd c89c 98bd
00000060: 061e 833b a5f5 09bd d474 d23b 500e b7bc
00000070: 6ec0 9eba 590b bebb 2f28 23bd 899b 643d
00000080: 7483 72bd d811 5dbc 1aa3 573d 5b41 2c3e
00000090: 3911 033c 9404 963d 3d2b 863b 3220 603d
000000a0: 745f 873d 34e6 10bd 410a 793d 882d 16bd
000000b0: 9267 35bd aa1d d1bb c0f7 2d3d 9162 81bd
000000c0: 8b8a b2bc f8c3 a8bc 6f23 823b 7b85 39bd
000000d0: 9a29 dfbb 9b5b aa3d 30f7 42bd b309 2c3d
000000e0: 6f29 093a 091e 89bd 8e18 893d d61a bfbc
000000f0: 7b5a a5bd c145 783d fe38 fe3c ca8b e03c

quantizer.ema_cluster_size f4 [1024]
1.332961 3.836883 0.7810282 1.6614982 0.0 0.0 0.0 5.651986
0.0 0.0 0.0 10.8633995 5.5475126e-16 0.0 34.150032 0.0
0.0 0.0 0.0 0.0 28.832912 0.0 0.0 7.6545715
0.0 0.0 0.0 41.519733 16.779825 0.0 4.097558 0.0
2.219005e-15 0.0 8.321253e-15 0.0 55.574837 0.0 0.0 6.2333455
2.607337e-14 7.757994 0.0 7.5980225 10.925228 0.0 0.0 7.9583735
8.320796 0.0 0.0 0.0 0.0 0.0 0.0 0.0
27.960974 37.002373 0.0 0.0 0.0 0.0 0.0 0.0
11.235608 0.0 0.0 0.0 0.0 0.0 0.0 0.0
0.0 12.933014 3.6144137 0.0 0.0 0.0 50.74688 0.0
15.387088 0.0 0.0 0.0 0.0 0.0 0.0 0.0
0.0 0.0 0.0 11.759926 4.3680725 19.447954 0.0 0.0
2.219005e-15 0.0 0.0 7.012433 5.0983157 0.0 0.0 0.0
0.0 0.0 0.0 0.0 0.0 0.0 18.283928 0.0
0.0 5.0597615 0.0 0.0 0.0 13.270743 0.0 0.0
0.0 0.0 5.5475126e-16 5.2612553 0.0 8.921496 0.0 0.0
0.0 24.104269 10.938301 0.0 0.0 31.377335 0.0 3.5174272
0.0 0.0 0.0 0.0 0.0 7.384254 5.5475126e-16 0.0
0.0 0.0 0.0 0.0 0.0 16.003513 0.0 0.0
22.682714 0.0 0.0 19.937822 0.0 0.0 0.0 0.0
0.0 3.3285087e-15 0.0 0.0 0.0 25.236649 18.792734 0.0
41.601696 0.0 0.0 0.0 0.0 0.0 5.5475126e-16 0.0
1.6642544e-15 5.5475126e-16 29.25759 0.0 0.0 0.0 0.0 0.0
5.5475126e-16 0.0 0.0 0.0 6.8021274 0.0 0.0 0.0
1.4423548e-14 3.1753087 0.0 33.21523 0.0 0.0 15.181689 0.0
0.0 0.0 0.0 17.409578 0.0 0.0 0.0 0.0
0.0 0.0 0.0 0.0 0.0 16.440512 0.0 0.0
0.0 16.044235 0.0 0.0 0.0 0.0 0.0 0.0
0.0 0.0 0.0 12.205517 0.0 5.5475126e-16 0.0 0.0
4.43801e-15 0.0 0.0 0.0 0.0 12.946515 0.0 42.692616
0.0 0.0 25.535774 0.0 0.0 0.0 0.0 13.145184
0.0 0.0 5.5475126e-16 31.693726 0.0 0.0 22.192003 31.274559
00000000: 779e aa3f 7e8f 7540 77f1 473f f9ab d43f
00000010: 0000 0000 0000 0000 0000 0000 12dd b440
00000020: 0000 0000 0000 0000 0000 0000 7cd0 2d41
00000030: 6be5 1f26 0000 0000 a299 0842 0000 0000
00000040: 0000 0000 0000 0000 0000 0000 0000 0000
00000050: cea9 e641 0000 0000 0000 0000 40f2 f440
00000060: 0000 0000 0000 0000 0000 0000 3514 2642
00000070: 153d 8641 0000 0000 321f 8340 0000 0000
00000080: 6be5 1f27 0000 0000 02e7 1528 0000 0000
00000090: a24c 5e42 0000 0000 0000 0000 9177 c740
000000a0: 19d9 ea28 7d41 f840 0000 0000 0023 f340
000000b0: bccd 2e41 0000 0000 0000 0000 ffaa fe40
000000c0: fb21 0541 0000 0000 0000 0000 0000 0000
000000d0: 0000 0000 0000 0000 0000 0000 0000 0000
000000e0: 13b0 df41 6e02 1442 0000 0000 0000 0000
000000f0: 0000 0000 0000 0000 0000 0000 0000 0000
00000100: 0dc5 3341 0000 0000 0000 0000 0000 0000
00000110: 0000 0000 0000 0000 0000 0000 0000 0000
00000120: 0000 0000 a0ed 4e41 8e52 6740 0000 0000
00000130: 0000 0000 0000 0000 cefc 4a42 0000 0000
00000140: 8331 7641 0000 0000 0000 0000 0000 0000
00000150: 0000 0000 0000 0000 0000 0000 0000 0000
00000160: 0000 0000 0000 0000 0000 0000 a828 3c41
00000170: 40c7 8b40 6995 9b41 0000 0000 0000 0000
00000180: 6be5 1f27 0000 0000 0000 0000 da65 e040
00000190: 6725 a340 0000 0000 0000 0000 0000 0000
000001a0: 0000 0000 0000 0000 0000 0000 0000 0000
000001b0: 0000 0000 0000 0000 7c45 9241 0000 0000
000001c0: 0000 0000 91e9 a140 0000 0000 0000 0000
000001d0: 0000 0000 f754 5441 0000 0000 0000 0000
000001e0: 0000 0000 0000 0000 6be5 1f26 345c a840
000001f0: 0000 0000 73be 0e41 0000 0000 0000 0000
00000200: 0000 0000 8bd5 c041 4803 2f41 0000 0000
00000210: 0000 0000 c804 fb41 0000 0000 871d 6140
00000220: 0000 0000 0000 0000 0000 0000 0000 0000
00000230: 0000 0000 cf4b ec40 6be5 1f26 0000 0000
00000240: 0000 0000 0000 0000 0000 0000 0000 0000
00000250: 0000 0000 3207 8041 0000 0000 0000 0000
00000260: 3376 b541 0000 0000 0000 0000 a980 9f41
00000270: 0000 0000 0000 0000 0000 0000 0000 0000
00000280: 0000 0000 26d8 6f27 0000 0000 0000 0000
00000290: 0000 0000 a8e4 c941 8557 9641 0000 0000
000002a0: 2368 2642 0000 0000 0000 0000 0000 0000
000002b0: 0000 0000 0000 0000 6be5 1f26 0000 0000
000002c0: 26d8 ef26 6be5 1f26 8b0f ea41 0000 0000
000002d0: 0000 0000 0000 0000 0000 0000 0000 0000
000002e0: 6be5 1f26 0000 0000 0000 0000 0000 0000
000002f0: 07ab d940 0000 0000 0000 0000 0000 0000
00000300: 70ea 8128 4238 4b40 0000 0000 65dc 0442
00000310: 0000 0000 0000 0000 33e8 7241 0000 0000
00000320: 0000 0000 0000 0000 0000 0000 d146 8b41
00000330: 0000 0000 0000 0000 0000 0000 0000 0000
00000340: 0000 0000 0000 0000 0000 0000 0000 0000
00000350: 0000 0000 2b86 8341 0000 0000 0000 0000
00000360: 0000 0000 985a 8041 0000 0000 0000 0000
00000370: 0000 0000 0000 0000 0000 0000 0000 0000
00000380: 0000 0000 0000 0000 0000 0000 cc49 4341
00000390: 0000 0000 6be5 1f26 0000 0000 0000 0000
000003a0: 6be5 9f27 0000 0000 0000 0000 0000 0000
000003b0: 0000 0000 ed24 4f41 0000 0000 3dc5 2a42
000003c0: 0000 0000 0000 0000 4449 cc41 0000 0000
000003d0: 0000 0000 0000 0000 0000 0000 ac52 5241
000003e0: 0000 0000 0000 0000 6be5 1f26 c08c fd41
000003f0: 0000 0000 0000 0000 3989 b141 4c32 fa41

quantizer.ema_w f4 [1024, 64]
0.7135199 0.10040704 0.94280195 0.86418235 0.21600305 1.6227412 -1.0263035 -0.5591996
0.5394978 1.0402639 0.31584314 0.12940957 1.4360856 0.06708887 0.729078 0.43646318
0.70967144 -0.3613216 0.29624495 0.3819554 -0.23284449 0.42480683 0.34642604 -0.3266978
0.0043577286 1.2831627 -0.3796375 0.6699142 -0.5373401 0.13401814 1.0627716 -0.138029
1.2619332 0.21141504 0.6088708 0.002331248 -0.388693 0.93680453 0.99063426 0.5434249
-0.35296223 -0.3605121 0.33034387 0.5145791 -0.13290706 0.2280739 -0.052942485 1.9201877
0.25758693 0.7992793 0.6373494 0.8127815 0.19810455 0.383845 -0.011421309 -0.68524027
2.0018117 1.1290332 0.61991525 0.8688337 0.0999843 1.6924242 0.12295076 1.1351085
-0.37024227 2.339524 0.6259678 1.8111815 0.97686535 -0.10213639 -1.9006331 -1.281291
0.7439504 2.40646 -0.4671487 3.9363687 1.2193305 1.5508419 -0.35857508 1.5778464
2.5459647 1.0663687 0.38820878 -0.40057543 -2.1551821 -0.78176856 2.3213549 0.83104795
-0.39120618 1.4328448 -0.22546542 3.4588845 -0.5074771 4.9059424 1.0557717 -1.0333412
3.0168643 3.3520617 -0.015203191 -1.3727565 -0.71067166 3.8027966 3.452205 0.9702596
-0.71692055 1.7890229 -0.58755714 0.044439867 0.22382009 0.6180663 -0.79325616 5.546
-0.06098068 3.5600834 0.4930398 0.10151168 1.2867501 0.20041788 -0.53619224 -1.697902
7.4416704 2.241092 -0.6973966 2.0730658 1.7295977 1.6268932 -0.2793085 2.6409116
-0.040015392 -0.005576295 0.061850943 0.4745254 0.13281165 0.44735214 -0.5472116 -0.15977953
0.10992833 0.15947017 0.03886734 0.9660108 0.46110794 0.062740594 0.010815503 0.30888015
0.25760397 -0.12614816 0.18042351 -0.2386414 -0.19283457 -0.15312283 0.67975634 0.1948188
0.004776077 0.117134236 -0.16047719 0.4645565 -0.22012544 0.4685023 0.27989188 -0.23142344
0.17151077 0.37582994 0.2527163 -0.080768414 -0.12896483 0.25659966 0.3526364 0.26599628
-0.077695705 -0.33809373 0.016630167 0.14451878 0.11769625 0.10934335 0.06397531 0.8894376
-0.21241915 0.32678962 0.119621664 0.2463816 0.17115092 -0.0042499797 -0.047163427 -0.2604343
0.6871549 0.06300692 -0.27978843 0.33868155 -0.014148683 0.4587682 0.06699691 0.25164473
-0.016457168 0.836529 0.023170732 0.39866737 0.6609923 -0.19072676 0.21050464 -0.4285659
0.07667643 0.68032384 -0.15908282 0.0005845855 1.0574197 0.20086995 0.7270836 0.052447733
0.24768682 1.4533393 0.9872599 0.011403093 -0.4192424 -0.17505592 1.9509313 0.41879687
0.3761476 -0.09877588 -0.48088637 0.91787267 -0.44708726 1.6529557 0.5772105 -0.22011112
0.72117376 0.80087566 -0.23484242 -0.32557938 1.1035627 0.9387521 0.562583 0.59853315
0.4582182 -0.55256706 0.029267536 0.6787864 1.461971 -0.033286516 -0.6208857 0.7251303
-0.4277818 1.1495394 0.21826455 0.2921149 1.1585059 0.018555094 0.48499018 -0.9937552
-0.5531115 0.1610942 -0.50978935 0.93566525 0.4718034 -0.08670337 0.8294465 0.36706486
00000000: 3da9 363f 35a2 cd3d 785b 713f 0e3b 5d3f
00000010: e72f 5d3e fcb5 cf3f ea5d 83bf b427 0fbf
00000020: 871c 0a3f 5e27 853f 31b6 a13e f183 043e
00000030: a7d1 b73f e465 893d dba4 3a3f 1a78 df3e
00000040: 07ad 353f 25ff b8be 6bad 973e a88f c33e
00000050: c96e 6ebe 4880 d93e c15e b13e ef44 a7be
00000060: 47cb 8e3b ad3e a43f d95f c2be 7f7f 2b3f
00000070: 1f8f 09bf 0d3c 093e e608 883f 7957 0dbe
00000080: 0787 a13f 2f7d 583e f5de 1b3f dac7 183b
00000090: c502 c7be 6cd2 6f3f 359a 7d3f e51d 0b3f
000000a0: 77b7 b4be 0b95 b8be d522 a93e 75bb 033f
000000b0: ca18 08be 348c 693e 38da 58bd b6c8 f53f
000000c0: 6fe2 833e 919d 4c3f 5529 233f 7312 503f
000000d0: ebdb 4a3e 5587 c43e 7120 3bbc e86b 2fbf
000000e0: af1d 0040 2984 903f c4b2 1e3f e36b 5e3f
000000f0: 92c4 cc3d 5ba1 d83f 9ccd fb3d 3c4b 913f
00000100: 6590 bdbe c3ba 1540 6d3f 203f ccd4 e73f
00000110: d913 7a3f e22c d1bd f247 f3bf 5801 a4bf
00000120: 8973 3e3f 7103 1a40 1d2e efbe 77ed 7b40
00000130: 0613 9c3f fd81 c63f 2797 b7be dff6 c93f
00000140: 16f1 2240 c57e 883f 4dc3 c63e 3918 cdbe
00000150: 81ee 09c0 fc21 48bf 1491 1440 8fbf 543f
00000160: 2d4c c8be 7567 b73f 68e0 66be 5d5e 5d40
00000170: 05ea 01bf 7bfd 9c40 8723 873f 8644 84bf
00000180: 4e14 4140 2e88 5640 ce16 79bc 7cb6 afbf
00000190: 94ee 35bf 0561 7340 edf0 5c40 ef62 783f
000001a0: 1b88 37bf b4fe e43f 256a 16bf 9406 363d
000001b0: 1831 653e 9839 1e3f d612 4bbf d578 b140
000001c0: e1c6 79bd 68d8 6340 b66f fc3e 5be5 cf3d
000001d0: 3ab4 a43f 583a 4d3e e543 09bf da54 d9bf
000001e0: 2a22 ee40 0d6e 0f40 9588 32bf 1cad 0440
000001f0: 7563 dd3f 093e d03f 8601 8fbe b204 2940
00000200: 2ee7 23bd 5ab9 b6bb 6a57 7d3d fef4 f23e
00000210: c7ff 073e 570b e53e 0f16 0cbf 3f9d 23be
00000220: 1b22 e13d 264c 233e 5c33 1f3d 7c4c 773f
00000230: 5716 ec3e 247e 803d 8233 313c 8a25 9e3e
00000240: abe4 833e fc2c 01be f1c0 383e 695e 74be
00000250: 6d76 45be 3bcc 1cbe 8304 2e3f 947e 473e
00000260: a380 9c3b 13e4 ef3d 2254 24be 59da ed3e
00000270: 9068 61be 89df ef3e fd4d 8f3e 44fa 6cbe
00000280: 85a0 2f3e c86c c03e 0864 813e e969 a5bd
00000290: 5b0f 04be 0861 833e c28c b43e aa30 883e
000002a0: ed1e 9fbd 9f1a adbe fd3b 883c bbfc 133e
000002b0: bb0a f13d 68ef df3d 7d05 833d 2fb2 633f
000002c0: 6884 59be f850 a73e 34fc f43d 754b 7c3e
000002d0: 3042 2f3e 6a43 8bbb 702e 41bd a557 85be
000002e0: 62e9 2f3f c609 813d 6e40 8fbe ab67 ad3e
000002f0: e1cf 67bc aae3 ea3e ad35 893d 94d7 803e
00000300: 2fd1 86bc c426 563f 8cd0 bd3c 211e cc3e
00000310: cb36 293f e04d 43be 878e 573e fd6c dbbe
00000320: 8808 9d3d b429 2e3f 9be6 22be de3e 193a
00000330: 8759 873f dab0 4d3e 2722 3a3f 6fd3 563d
00000340: 9da1 7d3e 0607 ba3f 11bd 7c3f 0ad4 3a3c
00000350: f1a6 d6be dc41 33be 1eb8 f93f 8b6c d63e
00000360: 6b96 c03e 024b cabd bd36 f6be b4f9 6a3f
00000370: 9fe8 e4be 0d94 d33f 11c4 133f cf64 61be
00000380: d89e 383f 3006 4d3f 887a 70be 57b2 a6be
00000390: 8b41 8d3f 0f52 703f 7105 103f 7839 193f
000003a0: 939b ea3e 0975 0dbf 79c2 ef3c f2c4 2d3f
000003b0: de21 bb3f 7157 08bd 5ef2 1ebf 24a2 393f
000003c0: 3706 dbbe 1b24 933f be80 5f3e 1690 953e
000003d0: ec49 943f da00 983c a250 f83e be66 7ebf
000003e0: b798 0dbf e1f5 243e 8e81 02bf c287 6f3f
000003f0: 3790 f13e 8991 b1bd 9b56 543f edef bb3e

quantizer.embedding.weight f4 [1024, 64]
0.5352867 0.07532594 0.7072955 0.6483146 0.16204673 1.2173898 -0.7699388 -0.41951475
0.40473434 0.78041196 0.23694734 0.0970838 1.0773597 0.05033046 0.5469585 0.3274372
0.5323996 -0.27106553 0.22224467 0.28654513 -0.17468128 0.31869254 0.25989082 -0.24509057
0.0032691932 0.96263605 -0.28480625 0.5025735 -0.40311563 0.10054118 0.79729736 -0.10355014
0.9467096 0.15860479 0.45677838 0.0017489156 -0.29159972 0.70279616 0.7431795 0.40768048
-0.2647943 -0.27045825 0.24782588 0.3860402 -0.09970764 0.17110234 -0.039717756 1.4405359
0.19324319 0.5996239 0.47814322 0.6097534 0.14861917 0.28796273 -0.008568332 -0.51407117
1.5017707 0.8470072 0.465064 0.6518041 0.0750088 1.2696663 0.09223837 0.8515649
-0.09649558 0.609746 0.16314487 0.47204503 0.25459868 -0.026619624 -0.49535862 -0.3339406
0.19389448 0.6271914 -0.12175213 1.0259287 0.31779194 0.40419316 -0.093454786 0.4112313
0.66355026 0.2779258 0.10117816 -0.10440126 -0.5617013 -0.20375095 0.60501057 0.21659455
-0.10195937 0.3734398 -0.05876265 0.9014829 -0.13226286 1.278627 0.2751639 -0.26931787
0.78628 0.8736419 -0.003962381 -0.3577791 -0.18522109 0.9911161 0.899742 0.25287703
-0.18684973 0.46626985 -0.15313397 0.011582283 0.058333833 0.16108552 -0.20674494 1.4454441
-0.015893286 0.9278582 0.12850007 0.026456809 0.3353634 0.052234553 -0.13974683 -0.44252115
1.9395093 0.5840918 -0.18176122 0.5402994 0.45078197 0.42401427 -0.072795674 0.6882961
-0.051233724 -0.007139611 0.07919088 0.6075588 0.17004545 0.5727675 -0.70062256 -0.2045738
0.14074679 0.20417769 0.049763814 1.2368323 0.5903797 0.08032995 0.013847633 0.39547482
0.32982334 -0.16151385 0.23100531 -0.3055446 -0.24689582 -0.19605087 0.8703263 0.24943632
0.006115052 0.14997287 -0.20546703 0.59479505 -0.2818377 0.59984714 0.35835966 -0.2963031
0.21959388 0.481194 0.32356542 -0.10341187 -0.16512017 0.3285375 0.45149815 0.34056842
-0.09947772 -0.43287843 0.02129244 0.18503468 0.15069243 0.1399978 0.08191082 1.1387918
-0.27197096 0.4184052 0.15315765 0.31545478 0.21913315 -0.005441463 -0.06038571 -0.33344716
0.879799 0.08067094 -0.35822722 0.43363106 -0.018115273 0.58738405 0.08577952 0.3221934
-0.0099049825 0.503477 0.013945637 0.23994367 0.39782768 -0.11479163 0.12669523 -0.25793853
0.046148807 0.40946266 -0.09574627 0.00035184115 0.6364232 0.12089646 0.43760568 0.03156642
0.14907385 0.8747131 0.5941965 0.006863115 -0.25232705 -0.10535991 1.174196 0.2520589
0.22638983 -0.059449676 -0.28942835 0.5524348 -0.26908588 0.99485505 0.3474024 -0.13247703
0.43404877 0.4820185 -0.14134328 -0.1959546 0.664195 0.5650014 0.33859867 0.36023575
0.27578518 -0.3325704 0.017615085 0.40853733 0.8799082 -0.020033967 -0.37368897 0.43643007
-0.25746658 0.6918667 0.13136564 0.17581354 0.69726336 0.011167649 0.29189828 -0.5981058
-0.33289808 0.09695686 -0.30682403 0.56314355 0.28396162 -0.052183665 0.49921426 0.22092324
00000000: 8d08 093f 7d44 9a3d 5111 353f f2f7 253f
00000010: 94ef 253e 6ed3 9b3f b61a 45bf a3ca d6be
00000020: 5739 cf3e 14c9 473f 53a2 723e dfd3 c63d
00000030: ece6 893f 5027 4e3d 7905 0c3f d9a5 a73e
00000040: 574b 083f 1ac9 8abe 1b94 633e 0bb6 923e
00000050: a6df 32be ab2b a33e 6910 853e 06f9 7abe
00000060: f63f 563b 516f 763f 20d2 91be a8a8 003f
00000070: 2c65 cebe 89e8 cd3d ae1b 4c3f 1912 d4bd
00000080: 8f5b 723f 4b69 223e dbde e93e df3b e53a
00000090: 8f4c 95be 73ea 333f 0341 3e3f 7fbb d03e
000000a0: 1e93 87be 8179 8abe 11c6 7d3e 10a7 c53e
000000b0: 8533 ccbd 7435 2f3e 16af 22bd 7b63 b83f
000000c0: 8be1 453e f480 193f 30cf f43e cc18 1c3f
000000d0: a02f 183e da6f 933e 3062 0cbc 2b9a 03bf
000000e0: 063a c03f 77d5 583f de1c ee3e a2dc 263f
000000f0: 379e 993d 6d84 a23f 78e7 bc3d 2800 5a3f
00000100: 7a9f c5bd 5018 1c3f 730f 273e e3af f13e
00000110: c25a 823e 6611 dabc a59f fdbe 43fa aabe
00000120: 468c 463e 9e8f 203f 2e59 f9bd a251 833f
00000130: a0b5 a23e 68f2 ce3e 3965 bfbd e98c d23e
00000140: 6ede 293f 4a4c 8e3e 7f36 cf3d 54d0 d5bd
00000150: a8cb 0fbf 17a4 50be f9e1 1a3f f6ca 5d3e
00000160: 13d0 d0bd 8033 bf3e 1bb1 70bd 95c7 663f
00000170: ea6f 07be 0daa a33f 48e2 8c3e 08e4 89be
00000180: a549 493f ffa6 5f3f dcd6 81bb d22e b7be
00000190: 99aa 3dbe c9b9 7d3f 7e55 663f 1979 813e
000001a0: 8955 3fbe ecba ee3e 27cf 1cbe 9ec3 3d3c
000001b0: 75ef 6e3d 9af3 243e f2b4 53be 5004 b93f
000001c0: a332 82bc 1d88 6d3f 8695 033e f3bb d83c
000001d0: c0b4 ab3e e6f3 553d cb19 0fbe 2292 e2be
000001e0: d741 f83f 0a87 153f 9d1f 3abe 1051 0a3f
000001f0: e5cc e63e 6618 d93e e615 95bd 2c34 303f
00000200: 74da 51bd 66f3 e9bb d42e a23d f988 1b3f
00000210: 6520 2e3e e4a0 123f 005c 33bf cb7b 51be
00000220: ed1f 103e f513 513e 24d5 4b3d 8550 9e3f
00000230: 2023 173f 0784 a43d 2fe1 623c ad7b ca3e
00000240: 9bde a83e e363 25be a88c 6c3e 5870 9cbe
00000250: 42d2 7cbe 8fc1 48be b4cd 5e3f 3c6c 7f3e
00000260: c660 c83b 7d92 193e f365 52be 7d44 183f
00000270: 084d 90be 958f 193f eb7a b73e 0ab5 97be
00000280: 38dd 603e 0f5f f63e 5eaa a53e 9ac9 d3bd
00000290: 4315 29be 1136 a83e c42a e73e fc5e ae3e
000002a0: faba cbbd 3ea2 ddbe 7c6d ae3c bb79 3d3e
000002b0: 1e4f 1a3e 955b 0f3e dcc0 a73d eec3 913f
000002c0: c73f 8bbe 3539 d63e 5cd5 1c3e 4a83 a13e
000002d0: 7164 603e 4d4e b2bb 0257 77bd 96b9 aabe
000002e0: 823a 613f ce36 a53d 8f69 b7be e404 de3e
000002f0: 7b66 94bc cd5e 163f 2cad af3d 89f6 a43e
00000300: 8248 22bc dee3 003f 3e7c 643c cbb3 753e
00000310: 12b0 cb3e e017 ebbd 65bc 013e 8510 84be
00000320: 8806 3d3d 17a5 d13e 9f16 c4bd 5277 b839
00000330: a1ec 223f 9098 f73d da0d e03e ca4b 013d
00000340: d1a6 183e 33ed 5f3f 431d 183f fbe3 e03b
00000350: 0331 81be f0c6 d7bd 0e4c 963f dd0d 813e
00000360: bcd2 673e 8181 73bd f42f 94be 5e6c 0d3f
00000370: a0c5 89be d2ae 7e3f bade b13e 0fa8 07be
00000380: a43b de3e 21cb f63e 4bbc 10be 53a8 48be
00000390: af08 2a3f efa3 103f ce5c ad3e d270 b83e
000003a0: b733 8d3e ab46 aabe 834d 903c ce2b d13e
000003b0: aa41 613f 461e a4bc 2954 bfbe c373 df3e
000003c0: a9d2 83be 2d1e 313f b784 063e 7708 343e
000003d0: da7f 323f 84f8 363c b173 953e 761d 19bf
000003e0: 9e71 aabe 5191 c63d 0a18 9dbe 2d2a 103f
000003f0: 6b63 913e 8abe 55bd 0399 ff3e b439 623e

decoder.model.0.weight f4 [64, 64, 4]
-0.008596766 0.08133393 0.07834661 0.068335116 0.017098214 -0.028397612 0.06254425 -0.0067190616
0.03996093 0.04497789 0.034065414 0.010570309 -0.04011139 -0.008801377 -0.041901566 0.056835398
0.058066268 0.089104295 0.06972723 0.060857337 0.0722039 0.061871212 -0.002228172 -0.04046083
-0.046844784 -0.021853905 0.034822494 0.015491269 -0.01479916 0.012552443 -0.041924175 -0.055579677
-0.038361304 -0.02912444 -0.00533452 -0.0044851284 -0.09811008 -0.035193045 -0.04600733 -0.009879597
-0.041067783 0.030347295 -0.043868624 -0.06360624 -0.026220862 0.028473722 -0.016616924 0.015157637
0.017033586 0.07368482 0.0138308145 0.023533424 -0.01637003 -0.007235603 0.0331026 0.061688364
-0.031079812 -0.031699467 0.02923188 0.029054875 -0.04448383 0.030831538 -0.0009744528 0.030007444
-0.051573396 -0.02115051 -0.00406302 0.062247396 0.02265458 -0.013518302 -0.011176272 0.054775164
-0.012616504 0.05101052 0.007850357 -0.05395059 0.052916612 0.04104319 0.043764297 -0.020892136
0.08379982 -0.007851457 0.02547351 0.04206993 -0.053179216 0.0025949627 -0.045776594 0.017067976
0.027837526 0.05625348 0.053308867 0.0346654 0.06956258 -0.038391937 0.062820144 0.028951235
0.025815617 0.052258167 0.0030372166 0.0031787485 -0.008845788 -0.01085862 -0.026785286 -0.029257324
0.047270674 -0.032543477 -0.007007428 -0.023371255 0.014227337 0.039881878 0.050845787 -0.027406238
-0.03963979 0.0033833692 0.017664565 -0.0074157966 -0.026187602 0.029940037 0.00017771129 -0.018418897
0.016844615 -0.032964077 -0.080494955 0.035869967 0.043801643 0.069031246 0.03631196 0.0071942196
0.036755815 0.009798715 0.04820943 0.06130269 0.05207357 -0.020535622 0.030350683 -0.023834126
0.015605031 0.012718725 -0.041279152 0.0019866386 0.027706128 -0.0449929 0.0082861185 0.008063849
-0.02533066 -0.021409553 0.012781485 0.027273845 0.023225388 0.06341066 0.056836378 -0.001974053
0.029328192 -0.045122262 0.0124900695 -0.06249531 0.049682777 -0.014980805 -0.00018426341 -0.030937923
-0.06902642 -0.060414217 0.057025623 0.030402577 0.04118012 0.07479259 -0.026999738 -0.013674124
-0.06481543 -0.06956911 -0.044417784 -0.010776483 -0.0073605264 -0.0018836708 0.06670773 0.05392287
0.014154357 0.045781422 0.005995189 -0.028829126 -0.008633533 -0.03770273 -0.0006842397 -0.05337314
0.008275443 0.06588567 0.01636623 -0.0054405876 -0.0033279425 -0.021612315 -0.023526028 0.031345267
0.010130242 0.03442983 -0.011124688 0.035350133 0.041643832 0.05213819 0.07621572 -0.011537628
0.0073028114 -0.0129394615 -0.06156497 -0.025629276 -0.052122917 -0.03308166 0.062776856 0.04790771
-0.049379695 0.023191808 0.04780802 0.03273013 -0.04605449 0.04628504 -0.027074622 0.0067587714
-0.01278882 0.050636444 0.0490362 -0.01950645 0.057364065 0.04639856 0.047711108 0.026783986
0.023083823 0.029291576 0.055928476 0.04103395 0.0533075 0.034263793 0.0017152051 -0.053516943
0.013084046 -0.03208869 0.018269883 -0.018024832 0.0040660063 -0.013779367 0.049985062 0.037046336
-0.0050052474 0.011126387 -0.04219693 -0.038843956 0.011578206 -0.039245706 0.035464674 0.013785155
-0.026011657 -0.072952904 -0.073952585 -0.062670454 0.0030329498 0.004865108 0.03139317 0.015534906
00000000: 73d9 0cbc 6792 a63d 3074 a03d 48f3 8b3d
00000010: 8e11 8c3c 1ca2 e8bc 3317 803d 932b dcbb
00000020: 12ae 233d bc3a 383d 2d88 0b3d 172f 2d3c
00000030: d74b 24bd a733 10bc faa0 2bbd 3ccc 683d
00000040: e5d6 6d3d 507c b63d 26cd 8e3d 8b45 793d
00000050: a3df 933d ab6c 7d3d 8606 12bb 41ba 25bd
00000060: 51e0 3fbd f606 b3bc 08a2 0e3d 17cf 7d3c
00000070: 2d78 72bc c3a8 4d3c afb8 2bbd 84a7 63bd
00000080: be20 1dbd 6196 eebc 32cd aebb fcf7 92bb
00000090: f0ed c8bd 9526 10bd 2f72 3cbd 09de 21bc
000000a0: b136 28bd e49a f83c 96af 33bd fd43 82bd
000000b0: 22cd d6bc b941 e93c 3720 88bc bd57 783c
000000c0: 058a 8b3c 11e8 963d a49a 623c 2bc9 c03c
000000d0: 711a 86bc a318 edbb 9896 073d f0ac 7c3d
000000e0: 179b febc 4dd7 01bd b277 ef3c 7d04 ee3c
000000f0: ad34 36bd 6c92 fc3c 6c72 7fba 2cd2 f53c
00000100: a03e 53bd d643 adbc 1523 85bb 20f7 7e3d
00000110: 1996 b93c de7b 5dbc af1c 37bc ec5b 603d
00000120: 74b5 4ebc 68f0 503d c99e 003c 4bfb 5cbd
00000130: 17bf 583d e71c 283d 3142 333d fc25 abbc
00000140: 3d9f ab3d 66a3 00bc d3ad d03c 8551 2c3d
00000150: 73d2 59bd 4010 2a3b 3d80 3bbd 24d2 8b3c
00000160: 860b e43c 0d6a 663d 665a 5a3d 4efd 0d3d
00000170: d376 8e3d dd40 1dbd d9a7 803d 242b ed3c
00000180: 467b d33c a90c 563d 0a0c 473b 8d52 503b
00000190: eded 10bc 5ae8 31bc d16c dbbc 0ead efbc
000001a0: e59e 413d 4f4c 05bd 919e e5bb 1375 bfbc
000001b0: c719 693c 2e5b 233d ac43 503d 0c83 e0bc
000001c0: 555d 22bd 84bb 5d3b 47b5 903c 3600 f3bb
000001d0: 6287 d6bc cf44 f53c 0358 3a39 3ae3 96bc
000001e0: b8fd 893c 5705 07bd 8ada a4bd 63ec 123d
000001f0: 5a69 333d 4160 8d3d dabb 143d 7dbd eb3b
00000200: 448d 163d ca8a 203c 4077 453d 8818 7b3d
00000210: 194b 553d 523a a8bc ffa1 f83c c93f c3bc
00000220: 3eac 7f3c 3362 503c 5414 29bd 4432 023b
00000230: f6f7 e23c 7a4a 38bd 80c2 073c 3c1e 043c
00000240: 3f82 cfbc 1663 afbc 6f69 513c 666d df3c
00000250: 2b43 be3c 73dd 813d 43cd 683d 1d5f 01bb
00000260: ad41 f03c 1fd2 38bd 26a3 4c3c 15fb 7fbd
00000270: 2b80 4b3d 0d72 75bc d536 41b9 8771 fdbc
00000280: b95d 8dbd e674 77bd b393 693d d30e f93c
00000290: 7cac 283d dc2c 993d 8e2e ddbc 6f09 60bc
000002a0: f4bd 84bd 407a 8ebd 6cef 35bd d98f 30bc
000002b0: 9230 f1bb 81e5 f6ba 109e 883d 3ade 5c3d
000002c0: ade7 673c 4d85 3b3d 4a73 c43b 0f2b ecbc
000002d0: a973 0dbc 2e6e 1abd 8d5e 33ba cb9d 5abd
000002e0: b995 073c 11ef 863d 7912 863c f546 b2bb
000002f0: 9c19 5abb 4f0c b1bc a8b9 c0bc e563 003d
00000300: 51f9 253c 4b06 0d3d 5344 36bc 4dcb 103d
00000310: b992 2a3d db8e 553d fd16 9c3d 5208 3dbc
00000320: 6c4c ef3b 0900 54bc 8d2b 7cbd 7df4 d1bc
00000330: d77e 55bd a280 07bd 2791 803d e03a 443d
00000340: 5d42 4abd bffc bd3c 58d2 433d 0710 063d
00000350: a2a3 3cbd 6295 3d3d 99cb ddbc af78 dd3b
00000360: 3388 51bc 2968 4f3d 2fda 483d fecb 9fbc
00000370: 95f6 6a3d 6b0c 3e3d b96c 433d 176a db3c
00000380: 491a bd3c e3f4 ef3c 4215 653d 3713 283d
00000390: f758 5a3d 3158 0c3d bcd0 e03a 9534 5bbd
000003a0: 775e 563c 6e6f 03bd b9aa 953c d0a8 93bc
000003b0: 223c 853b dbc2 61bc 23bd 4c3d e6bd 173d
000003c0: 0f03 a4bb 734b 363c b0d6 2cbd d71a 1fbd
000003d0: 84b2 3d3c 1bc0 20bd 6843 113d 21db 613c
000003e0: 6616 d5bc 5568 95bd 7474 97bd 5e59 80bd
000003f0: 74c4 463b 7c6b 9f3b 2096 003d 1e86 7e3c

decoder.model.0.bias f4 [64]
0.13049024 0.10539485 0.14634731 -0.07444028 0.018188637 0.025875248 0.14024237 0.029794155
0.16227026 0.078277044 0.092994556 -0.07464901 0.11090178 0.089948505 0.105525956 0.09901392
-0.013268202 -0.038785864 -0.053935714 0.037281867 0.05569261 0.11450789 0.095014505 0.010577975
0.05443299 0.042766273 0.16493434 0.03234148 0.1062521 0.042248435 0.04004807 0.14487392
0.08998394 -0.008540074 0.076526605 -0.015291468 -0.06399953 0.09225976 0.08421683 0.09998279
-0.047561947 -0.0005180111 0.061549697 0.11559059 0.112452194 0.06985099 -0.07562392 0.02798146
0.077288486 0.009719757 -0.09191553 0.110681094 0.09691817 -0.13068552 0.20661773 0.0273036
0.099157624 0.028433817 0.08982332 -0.08170118 0.09484463 0.16937554 0.15391234 0.1255762
00000000: 3c9f 053e 41d9 d73d 12dc 153e 2574 98bd
00000010: 5600 953c 54f8 d33c b29b 0f3e df12 f43c
00000020: 2d2a 263e b74f a03d ee73 be3d 95e1 98bd
00000030: 7920 e33d ec36 b83d fe1d d83d cfc7 ca3d
00000040: df62 59bc eddd 1ebd b2eb 5cbd dfb4 183d
00000050: ef1d 643d 1d83 ea3d f796 c23d 3e4f 2d3c
00000060: 20f5 5e3d b02b 2f3d 8ce4 283e 8078 043d
00000070: b39a d93d b20c 2d3d 7209 243d d459 143e
00000080: 8049 b83d abeb 0bbc fbb9 9c3d 1189 7abc
00000090: 3012 83bd aff2 bc3d e079 ac3d c7c3 cc3d
000000a0: 51d0 42bd 23cb 07ba 891b 7c3d c2ba ec3d
000000b0: 564d e63d 090e 8f3d b7e0 9abd 6039 e53c
000000c0: 6d49 9e3d 9e3f 1f3c 363e bcbd c5ac e23d
000000d0: 097d c63d 6dd2 05be 9993 533e cdab df3c
000000e0: 2713 cb3d 09ee e83c 4af5 b73d f352 a7bd
000000f0: e73d c23d c870 2d3e 329b 1d3e 0c97 003e

decoder.model.2.weight f4 [64, 29, 4]
0.05719875 -0.03199681 -0.11762799 -0.011595665 0.029111471 -0.045488846 0.0028181374 -0.05243901
-0.059534602 -0.061996233 -0.051086005 0.06781846 -0.122496866 -0.034593813 -0.042045556 -0.11117953
0.07112834 0.10289582 0.07728738 0.05748089 -0.03602253 -0.019511737 0.06503491 -0.07504953
-0.00771133 0.01683433 0.010528849 -0.071072094 -0.006554778 0.07781787 0.07103075 0.042690936
0.058099575 0.10142907 -0.005713878 -0.04481506 -0.074547425 0.07720308 0.06248178 0.028048737
0.0368885 0.053827196 0.112514675 0.06731706 0.04190772 -0.07178393 -0.06366375 -0.07902001
0.046212245 0.086887 0.02129682 0.007890412 0.019820802 -0.08920079 0.0035684668 0.03055316
0.01556287 -0.049288835 -0.07048683 0.014494379 -0.015561231 -0.10235021 -0.04175246 -0.048994943
0.035755802 0.0542353 0.10304861 0.062076792 0.110296786 0.038036563 -0.0023981063 -0.044289872
-0.01924453 0.0149633875 -0.020370401 0.039335597 -0.009643624 -0.033167712 0.048201244 -0.043384254
-0.07600267 -0.07547948 -0.03146447 -0.053289715 -0.01464864 0.043163456 0.035334058 -0.061522923
-0.003660347 0.0178268 -0.014471923 -0.040116012 0.10941805 0.011884408 0.04017173 0.08752647
-0.0711936 -0.118433185 -0.048606034 -0.06567124 0.032327257 -0.00035475733 -0.02562397 -0.086319156
-0.07667974 0.053042557 0.03793501 -0.0423551 -0.04688797 -0.080113284 -0.09069593 -0.09348563
0.032928616 0.07119077 -0.014206179 -0.04730166 0.07167008 0.062258627 -0.021012966 0.021500729
-0.09377652 -0.07466077 -0.009795945 -0.0064836415 -0.09171845 -0.018960064 0.06126242 -0.008005123
0.052493438 -0.057597518 -0.039226096 0.07350592 0.05805719 -0.020271221 0.05007021 -0.03459281
0.06577367 -0.052633308 0.0018861099 -0.029739441 -0.05356973 -0.0099381665 0.017214302 0.053177882
-0.07375403 0.0034971726 -0.004596283 0.0037692678 0.0104469415 0.008383136 -0.016079282 -0.025785046
0.018762352 0.08028571 0.02690668 0.061863054 -0.1457773 -0.078924134 -0.06832423 -0.027883448
-0.059238303 0.008838958 -0.06406773 0.033349015 -0.0851114 -0.068744816 -0.10458333 -0.034190528
-0.045286335 0.057476483 0.05453618 0.024757132 0.030999955 -0.056875296 0.02909591 -0.058050875
-0.0418385 -0.052045427 -0.06978193 0.04237896 0.08294732 -0.057831805 0.014909689 0.018819839
-0.009398969 -0.052366592 0.006434809 0.070087776 0.04364997 -0.06881769 0.058226366 -0.03350545
0.04981045 -0.019129103 -0.11817321 -0.098672 0.099027015 0.15562886 0.027830698 -0.051156893
0.061070193 0.032940574 0.023374407 0.06537561 -0.15732461 -0.03545505 -0.07701209 -0.046566498
0.055509694 0.1272426 0.23890744 0.05263769 -0.05530489 0.09796727 0.0075956807 0.08546487
0.02483073 0.03968405 -0.023725701 0.07742842 0.0010191881 -0.107850984 -0.015110111 -0.03882206
0.0080124065 0.017247884 -0.021748869 -0.014844282 -0.060533002 -0.06554967 -0.02975954 -0.055659294
-0.050295264 -0.05981362 -0.0049987114 0.0007704678 -0.040211868 -0.06313265 0.07072436 0.026646487
0.013600077 0.051751204 -0.038608238 0.06628667 -0.024441434 0.0036667306 -0.013893827 0.02748359
0.022247229 -0.013986168 -0.06986608 0.024448862 0.058175907 0.023262914 -0.049445134 -0.061655197
00000000: 3d49 6a3d 160f 03bd f2e6 f0bd befb 3dbc
00000010: 2e7b ee3c 8352 3abd 80b0 383b 4aca 56bd
00000020: 8eda 73bd c3ef 7dbd 8f3f 51bd 68e4 8a3d
00000030: a3df fabd 3eb2 0dbd f637 2cbd 18b2 e3bd
00000040: bcab 913d 0bbb d23d d948 9e3d 1571 6b3d
00000050: 5c8c 13bd 14d7 9fbc 0631 853d 91b3 99bd
00000060: 53af fcbb 26e8 893c 3281 2c3c 3f8e 91bd
00000070: 77c9 d6bb fa5e 9f3d 9278 913d b1dc 2e3d
00000080: d2f9 6d3d 0bba cf3d 7c3b bbbb ff8f 37bd
00000090: 52ac 98bd a61c 9e3d e5ec 7f3d 77c6 e53c
000000a0: 6518 173d e879 5c3d 186e e63d 87dd 893d
000000b0: 6ea7 2b3d 7403 93bd 2462 82bd 3ed5 a1bd
000000c0: 0d49 3d3d d0f1 b13d ab76 ae3c c946 013c
000000d0: 3c5f a23c e7ae b6bd f0dc 693b 9f4a fa3c
000000e0: 68fb 7e3c 17e3 49bd 665b 90bd d579 6d3c
000000f0: 89f4 7ebc fd9c d1bd a104 2bbd ecae 48bd
00000100: ad74 123d d525 5e3d 260b d33d 3c44 7e3d
00000110: 48e3 e13d 3acc 1b3d 8c29 1dbb 4c69 35bd
00000120: b4a6 9dbc ff28 753c d4df a6bc 5d1e 213d
00000130: 4a00 1ebc deda 07bd ab6e 453d b0b3 31bd
00000140: 4aa7 9bbd fc94 9abd e3e0 00bd 5146 5abd
00000150: d900 70bc 2acc 303d 72ba 103d 76ff 7bbd
00000160: 6fe2 6fbb 8209 923c a51b 6dbc b050 24bd
00000170: 9216 e03d d2b6 423c 1d8b 243d 1441 b33d
00000180: f3cd 91bd 198d f2bd 1f17 47bd a57e 86bd
00000190: 9669 043d b9fe b9b9 5ce9 d1bc 19c8 b0bd
000001a0: 440a 9dbd 2743 593d be61 1b3d 8b7c 2dbd
000001b0: 9a0d 40bd 6f12 a4bd cabe b9bd 6575 bfbd
000001c0: 28e0 063d 77cc 913d 09c1 68bc 63bf 41bd
000001d0: c3c7 923d e702 7f3d 6223 acbc 4c22 b03c
000001e0: e70d c0bd bfe7 98bd 2c7f 20bc ba74 d4bb
000001f0: e2d6 bbbd 2352 9bbc 4eee 7a3d eb27 03bc
00000200: 5c03 573d 60eb 6bbd 8bab 20bd 468a 963d
00000210: 60cd 6d3d d50f a6bc 6c16 4d3d 31b1 0dbd
00000220: 59b4 863d 0696 57bd 5937 f73a 21a0 f3bc
00000230: ef6b 5bbd b1d3 22bc 0205 8d3c 0dd1 593d
00000240: 5a0c 97bd d230 653b 6b9c 96bb d205 773b
00000250: a629 2b3c 6c59 093c b3b8 83bc 293b d3bc
00000260: 81b3 993c d66c a43d 666b dc3c 1d64 7d3d
00000270: a546 15be faa2 a1bd 93ed 8bbd d46b e4bc
00000280: dda3 72bd 47d1 103c f135 83bd fa98 083d
00000290: e34e aebd 15ca 8cbd c92f d6bd 5e0b 0cbd
000002a0: 2a7e 39bd 766c 6b3d 5461 5f3d 78cf ca3c
000002b0: 9ef3 fd3c 12f6 68bd 8c5a ee3c c1c6 6dbd
000002c0: d95e 2bbd 962d 55bd d4e9 8ebd 8f95 2d3d
000002d0: 49e0 a93d 0be1 6cbd c547 743c 102c 9a3c
000002e0: 22fe 19bc 5a7e 56bd 17db d23b 2e8a 8f3d
000002f0: 50ca 323d 4af0 8cbd c57e 6e3d 033d 09bd
00000300: 0b06 4c3d a3b4 9cbc cc04 f2bd 8c14 cabd
00000310: adce ca3d 2c5d 1f3e 34fd e33c e489 51bd
00000320: bd24 7a3d b2ec 063d af7b bf3c a6e3 853d
00000330: b419 21be 5139 11bd 84b8 9dbd 83bc 3ebd
00000340: 225e 633d e24b 023e 27a4 743e 9e9a 573d
00000350: 6187 62bd 10a3 c83d 30e5 f83b 3508 af3d
00000360: d169 cb3c be8b 223d 675c c2bc cb92 9e3d
00000370: 4796 853a fae0 dcbd 6690 77bc e103 1fbd
00000380: 7846 033c 6f4b 8d3c af2a b2bc 6e35 73bc
00000390: 74f1 77bd e83e 86bd 47ca f3bc 00fb 63bd
000003a0: 6802 4ebd 20ff 74bd 3bcc a3bb 38f9 493a
000003b0: 33b5 24bd b14b 81bd efd7 903d bc49 da3c
000003c0: dbd2 5e3c 12f9 533d ac23 1ebd 4ec1 873d
000003d0: 6739 c8bc 884d 703b efa2 63bc 4425 e13c
000003e0: d23f b63c 3e26 65bc f315 8fbd fb48 c83c
000003f0: dc49 6e3d de91 be3c fb86 4abd 298a 7cbd

decoder.model.2.bias f4 [29]
-0.065579206 -0.08479053 0.007896924 0.04247833 -0.00625684 -0.009700703 0.081846 -0.041637395
0.028124897 -0.04121397 -0.024096303 0.08055126 0.07894284 -0.11833696 -0.014188361 0.11066907
-0.11252077 -0.085374184 0.028457778 -0.005689961 0.04361631 0.045925867 0.02546244 -0.03230243
-0.057742428 0.013576299 0.041094244 0.0637847 -0.108013496
00000000: 644e 86bd a8a6 adbd 1a62 013c c2fd 2d3d
00000010: 2e06 cdbb b3ef 1ebc e09e a73d f98b 2abd
00000020: 2f66 e63c fbcf 28bd 9c65 c5bc 0ff8 a43d
00000030: c9ac a13d a65a f2bd 4d76 68bc 77a6 e23d
00000040: 4a71 e6bd a9d8 aebd 4920 e93c da72 babb
00000050: 04a7 323d c31c 3c3d 9b96 d03c 8e4f 04bd
00000060: 5383 6cbd 206f 5e3c 7052 283d 8ea1 823d
00000070: 2e36 ddbd
